…
&lt;/ul&gt;&lt;p&gt;　　　　   如果选择valid，假设输入尺寸为n * n，过滤器的大小为f * f，步长为s，则其输出图片的尺寸公式为：[(n - f)/s + 1] * [(n -f)/s + 1)]，若计算结果不为整数，则向下取整；&lt;/p&gt;
&lt;p&gt;　　　　  如果选择same，假设输入尺寸为n * n，过滤器的大小为f * f，要填充的边缘像素宽度为p，则计算p的公式为：n + 2p -f  +1 = n， 最后得 p = (f -1) /2。&lt;/p&gt;
&lt;p&gt;　　运行上述例子，可以看到如下结果：&lt;/p&gt;
&lt;div class=&quot;cnblogs_code&quot; readability=&quot;70&quot;&gt;
&lt;pre&gt;
train data type:&amp;lt;class 'numpy.ndarray'&amp;gt;, shape:(60000, 28, 28, 1), dim:4
_________________________________________________________________
Layer (type)                 Output Shape              Param #   
=================================================================
conv2d (Conv2D)              (None, 26, 26, 32)        320       
_________________________________________________________________
conv2d_1 (Conv2D)            (None, 24, 24, 32)        9248      
_________________________________________________________________
max_pooling2d (MaxPooling2D) (None, 12, 12, 32)        0         
_________________________________________________________________
dropout (Dropout)            (None, 12, 12, 32)        0         
_________________________________________________________________
conv2d_2 (Conv2D)            (None, 10, 10, 64)        18496     
_________________________________________________________________
conv2d_3 (Conv2D)            (None, 8, 8, 64)          36928     
_________________________________________________________________
max_pooling2d_1 (MaxPooling2 (None, 4, 4, 64)          0         
_________________________________________________________________
dropout_1 (Dropout)          (None, 4, 4, 64)          0         
_________________________________________________________________
flatten (Flatten)            (None, 1024)              0         
_________________________________________________________________
dense (Dense)                (None, 256)               262400    
_________________________________________________________________
dropout_2 (Dropout)          (None, 256)               0         
_________________________________________________________________
dense_1 (Dense)              (None, 10)                2570      
=================================================================
Total params: 329,962
Trainable params: 329,962
Non-trainable params: 0
&lt;/pre&gt;&lt;/div&gt;
&lt;p&gt;　　让我们解读下，首先mnist为输入数据，尺寸大小为 (60000, 28, 28, 1)， 这是典型的NHWC结构，即（图片数量，宽度，高度，通道数）；&lt;/p&gt;
&lt;p&gt;　　其次我们需要关注表格中的&quot;output shape&quot;输出尺寸，其遵循mnist一样的结构，只不过第一位往往是None，表示图片数待定，后三位则按照上述规则进行计算；&lt;/p&gt;
&lt;p&gt;　　最后关注的是&quot;param&quot;可训练参数数量，不同的模型层计算方法不一样：&lt;/p&gt;
…
